model/model.pth (torch, 303708 bytes, 10 tensors)

model_.0.weight f4 [16, 3, 3, 3]
-0.13117658 -0.06635101 -0.025524631 -0.078814715 -0.124380305 -0.16055404 0.18438229 -0.06146947
0.11907595 0.026302129 -0.05471218 0.063376345 -0.120815694 -0.15189472 -0.13774858 0.12958421
0.10280599 -0.16040592 -0.0063323374 -0.060790595 -0.03563347 -0.18828729 -0.15018934 0.018344864
-0.00175255 -0.075347126 0.040523592 0.09321526 0.10575268 0.16170885 -0.01822651 0.0828801
0.1869563 0.07107783 -0.08353766 -0.03776339 -0.14004974 -0.01456342 -0.15150179 0.002583233
-0.2738146 -0.02227816 -0.14111255 -0.12466966 -0.15185715 -0.05384274 -0.054943558 0.15131953
-0.11570552 0.011690606 -0.11232389 0.08235509 -0.058188327 -0.13775602 -0.120985895 -0.028346088
0.013819223 -0.005814494 0.08967589 -0.12313816 -0.034852576 0.11199522 0.09833016 0.10255152
-0.32777008 -0.12668529 0.12111087 -0.06370894 0.10366567 -0.1370966 -0.13040803 0.024831833
-0.105780594 -0.21270707 -0.066929944 0.25244132 -0.17139426 -0.18099408 0.13973895 -0.18038693
-0.18205504 0.0539197 -0.16876905 0.14389277 -0.07964711 -0.1095871 -0.04098532 0.12818395
0.19058278 0.18493097 0.018367048 0.07540127 -0.19639744 0.1900404 -0.16908206 0.14016177
-0.32713845 -0.07808156 -0.036732636 -0.028496742 -0.064012915 -0.27676332 -0.23713021 0.113460615
-0.12496758 0.16926047 -0.042214468 -0.15421742 -0.06974296 -0.008411992 0.18699498 0.1755005
0.026362352 -0.17056553 0.03110092 -0.017892271 -0.0011305509 0.031330545 -0.11288105 -0.026841149
-0.16012366 -0.13910422 -0.1492837 -0.020463524 -0.016787829 0.0134903975 0.13409473 0.06841718
0.036321726 -0.108335994 0.04004762 -0.12988113 0.13712275 -0.0066556567 0.11795671 0.02564425
0.15001208 0.1279088 0.121809006 0.17823741 0.12835269 -0.054443073 0.1306976 0.06241295
-0.01850117 -0.27228495 -0.33880734 0.039450057 -0.3231624 -0.070410244 -0.053870313 -0.18049335
-0.17857358 -0.06694539 0.023590973 -0.26767996 -0.1732595 -0.068006165 0.043998256 0.13466454
-0.20267329 -0.033520136 -0.007836496 -0.17241597 -0.12974156 -0.01826152 0.031167405 -0.16919243
0.032676473 0.1816461 0.06507829 0.025676558 -0.11584834 0.18493071 -0.104814276 0.21497631
-0.10233286 0.13253653 -0.08361503 -0.16325289 -0.030226938 0.14444172 -0.16653414 0.1328496
-0.10669622 0.2062366 -0.1857276 0.21615858 -0.14601043 0.14621247 -0.1773266 -0.18107302
-0.010923275 0.022012006 -0.07925483 -0.16373849 0.084438056 0.040206514 -0.0040472504 -0.14382318
-0.21843585 -0.02546394 -0.27638015 -0.08124355 -0.24519636 -0.09867545 -0.10855463 -0.048137326
0.10922506 -0.10649263 -0.25788024 0.110922 -0.08695855 -0.04692068 0.18062004 -0.23045874
-0.18241923 0.19227888 0.029590132 0.04861144 -0.036222067 0.09873568 0.00033472144 -0.003542954
0.15444687 0.16484319 0.05364136 0.037526295 0.047400612 -0.24533156 -0.10893996 -0.31326914
-0.2292784 -0.058291312 -0.0013852342 -0.099691056 -0.046593327 0.12225445 0.017897535 0.047734454
-0.075241335 -0.10264177 -0.04902625 -0.13345593 0.084148005 -0.019814316 -0.117148414 0.097670935
0.09515304 0.06478014 0.046274584 -0.17249711 -0.018691935 0.17548259 -0.2681847 0.40203673
00000000: 2753 06be 0ae3 87bd 0819 d1bc 9c69 a1bd
00000010: 1abb febd 4768 24be b6ce 3c3e 69c7 7bbd
00000020: 17de f33d 9077 d73c e119 60bd 75cb 813d
00000030: 386e f7bd 4a8a 1bbe f70d 0dbe b9b1 043e
00000040: f28b d23d 7341 24be 7f7f cfbb 8fff 78bd
00000050: 67f4 11bd 62ce 40be 3ccb 19be f847 963c
00000060: d2b5 e5ba 984f 9abd 11fc 253d a4e7 be3d
00000070: dc94 d83d 0197 253e c34f 95bc 0bbd a93d
00000080: 7971 3f3e 4191 913d cb15 abbd c9ad 1abd
00000090: 3369 0fbe 699b 6ebc 4923 1bbe 754b 293b
000000a0: 6d31 8cbe b080 b6bc cf7f 10be cf52 ffbd
000000b0: 7180 1bbe 348a 5cbd 7f0c 61bd 82f3 1a3e
000000c0: 04f7 ecbd f589 3f3c 110a e6bd c9a9 a83d
000000d0: e256 6ebd ea0f 0dbe 74c7 f7bd 0e36 e8bc
000000e0: 066a 623c 8387 bebb fea7 b73d dc2f fcbd
000000f0: 93c1 0ebd c05d e53d 5361 c93d 8806 d23d
00000100: 7bd1 a7be cab9 01be fa08 f83d d579 82bd
00000110: ab4e d43d 0d63 0cbe af89 05be 216c cb3c
00000120: 7fa3 d8bd e2cf 59be 9112 89bd fd3f 813e
00000130: fa81 2fbe 8356 39be ba17 0f3e 5ab7 38be
00000140: a36c 3abe e7da 5c3d cbd1 2cbe a058 133e
00000150: 061e a3bd 346f e0bd 39e0 27bd a742 033e
00000160: 2228 433e 8b5e 3d3e 7e76 963c fb6b 9a3d
00000170: 691c 49be f399 423e d923 2dbe 9186 0f3e
00000180: b17e a7be 3ae9 9fbd f674 16bd 0072 e9bc
00000190: 3419 83bd ecb3 8dbe 43d2 72be 0a5e e83d
000001a0: 01ef ffbd 9e52 2d3e 14e9 2cbd 2ceb 1dbe
000001b0: 66d5 8ebd 74d2 09bc 9d7b 3f3e 67b6 333e
000001c0: dcf5 d73c bba8 2ebe 5bc7 fe3c d092 92bc
000001d0: fe2e 94ba 7554 003d 2e2e e7bd f8e1 dbbc
000001e0: 75f7 23be 5671 0ebe d4dd 18be 1fa3 a7bc
000001f0: a186 89bc d406 5d3c 2150 093e 4e1e 8c3d
00000200: 17c6 143d 43df ddbd f908 243d 8fff 04be
00000210: e869 0c3e b217 dabb 4a93 f13d e413 d23c
00000220: c49c 193e 86fa 023e 0077 f93d de83 363e
00000230: e36e 033e b3ff 5ebd 97d5 053e b9a4 7f3d
00000240: c48f 97bc ef68 8bbe 2878 adbe 6296 213d
00000250: 8b75 a5be 3f33 90bd 1ea7 5cbd 40d3 38be
00000260: fedb 36be aa1a 89bd db41 c13c 590d 89be
00000270: f06a 31be d146 8bbd 8437 343d 80e5 093e
00000280: 9689 4fbe 694c 09bd a664 00bc d08d 30be
00000290: f9da 04be 2f99 95bc c952 ff3c c840 2dbe
000002a0: c4d7 053d 6f01 3a3e c447 853d a557 d23c
000002b0: e541 edbd 7a5e 3d3e dea8 d6bd c022 5c3e
000002c0: e493 d1bd a8b7 073e 5b3e abbd c42b 27be
000002d0: 7c9e f7bc 88e8 133e ed87 2abe ba09 083e
000002e0: 8c83 dabd b02f 533e 602f 3ebe ad58 5d3e
000002f0: c283 15be b9b8 153e 1b95 35be 356b 39be
00000300: 89f7 32bc 8652 b43c 5b50 a2bd 10ab 27be
00000310: dced ac3d 96af 243d cc9e 84bb 6246 13be
00000320: a6ad 5fbe c199 d0bc b381 8dbe 0563 a6bd
00000330: c114 7bbe 5b16 cabd e451 debd a52b 45bd
00000340: 63b1 df3d cf18 dabd e108 84be 132b e33d
00000350: 5317 b2bd e62f 40bd 76f4 383e 60fd 6bbe
00000360: 1bcc 3abe c1e4 443e 0167 f23c ca1c 473d
00000370: 975d 14bd ef35 ca3d 8d7d af39 e830 68bb
00000380: 5227 1e3e a7cc 283e 0bb7 5b3d 2cb5 193d
00000390: 2527 423d 3238 7bbe ea1b dfbd d064 a0be
000003a0: f5c7 6abe dfc2 6ebd bf90 b5ba d32a ccbd
000003b0: a5d8 3ebd 8b60 fa3d da9d 923c 3485 433d
000003c0: 2118 9abd d935 d2bd c0cf 48bd aca8 08be
000003d0: ca55 ac3d a251 a2bc 82eb efbd b307 c83d
000003e0: 99df c23d 73ab 843d 6b8a 3d3d 15a3 30be
000003f0: d41f 99bc b5b1 333e 814f 89be c2d7 cd3e

model_.0.bias f4 [16]
-0.25137794 -0.31505257 -0.30238307 -0.2670956 -0.22520843 -0.6281568 -0.5519927 -0.44823244
-0.501085 -0.53441525 -0.42776677 -0.4019055 -0.49659204 -0.49614426 -0.2848144 -0.28662807
00000000: 9cb4 80be 924e a1be f4d1 9abe c1c0 88be
00000010: 0a9d 66be e2ce 20bf 654f 0dbf b97e e5be
00000020: 1b47 00bf 70cf 08bf 3f04 dbbe 8fc6 cdbe
00000030: 5041 febe 9f06 febe 31d3 91be eac0 92be

model_.4.weight f4 [32, 16, 3, 3]
-0.05744254 -0.081910364 0.02692751 0.069427505 0.06686431 -0.00578022 0.027905872 0.02848331
0.014047454 -0.1302942 -0.1338853 -0.04213278 -0.01203078 -0.13652922 -0.08162434 -0.111227445
-0.2324721 -0.12588099 -0.011790524 -0.006901636 -0.18329939 -0.01805785 0.21682075 -0.018555993
0.038549826 0.09938499 0.014142138 -0.15401977 0.02499549 -0.014792771 0.08352707 -0.12931427
0.009081894 -0.092547625 -0.04972285 -0.018288651 0.07062009 0.00012950551 0.07150524 0.03502394
-0.043947138 -0.010677332 0.09300264 0.059308518 0.021953214 0.038719475 0.000507017 -0.029347947
0.041362982 0.02720058 0.027023088 0.020276418 -0.077808306 0.04523035 -0.06408863 -0.024231916
-0.040014405 -0.123528294 0.07552712 -0.22823535 0.0004139722 -0.12346724 -0.08133648 -0.080966696
-0.12450612 -0.18629536 -0.15828921 -0.13348134 -0.10611527 -0.17664288 -0.14053398 -0.048245724
-0.0028899785 0.024723079 -0.041001335 -0.005614418 -0.007985852 -0.056158952 -0.045837224 0.05319288
-0.04906309 -0.122245796 -0.11395915 0.010638502 0.01707559 -0.06767579 0.015508471 0.029182918
0.010655793 -0.038199373 -0.13550898 -0.1711803 -0.13148904 -0.1725828 -0.051463608 -0.18830755
-0.06822845 -0.13108417 -0.054293882 0.04711637 -0.010279963 -0.06991057 0.09397445 0.090219766
0.049735148 0.12519564 -0.16166213 0.08428987 -0.18758643 -0.031445626 -0.009287914 0.014262916
0.01960461 -0.023505243 0.044699043 -0.036851283 -0.0769382 -0.17703949 0.017613122 -0.030907499
-0.0859421 -0.09334115 -0.02951686 -0.018611118 -0.06437866 -0.16287905 0.059941944 0.040227134
-0.042419344 0.04761027 -0.07658673 -0.040046386 -0.13257366 -0.14752069 -0.1503309 -0.13835533
-0.122420825 0.02864805 -0.15244569 -0.16728365 -0.2313791 -0.09284174 0.0055296654 -0.07655695
0.007464623 -0.0728408 0.027611503 0.058775205 -0.12774016 -0.053164434 -0.04157898 -0.128373
-0.01641381 -0.0583943 -0.0023544587 -0.09429426 -0.16746275 -0.07468885 -0.018152257 -0.12480811
-0.014111245 -0.03029124 0.1269552 0.1060309 -0.009527489 0.004076488 -0.029508596 0.0012952378
-0.13302001 -0.2012742 0.015556887 -0.01993693 -0.02373798 -0.093349 -0.14161532 -0.050677497
-0.059694216 -0.16725981 -0.15959595 -0.09446598 -0.12707183 0.07393268 -0.0087632965 -0.02272422
-0.05448537 -0.1288352 -0.11334286 0.018383155 -0.13574578 -0.08442265 -0.0543283 -0.0030893304
-0.083061196 -0.010119215 0.05830089 -0.04063241 -0.02081319 0.079641834 0.0021287396 0.024738615
-0.1128353 0.12124785 0.101609804 -0.002210774 -0.03692487 0.039424434 -0.10420956 -0.07991724
-0.027756583 -0.18640956 -0.11995494 -0.0514463 -0.059378028 -0.09798329 -0.08688066 -0.084359206
-0.079490334 0.037058156 0.080720186 -0.066776656 0.073290415 -0.006272207 -0.025968457 -0.09880363
-0.120703734 -0.105278604 0.067073174 0.004059706 -0.11517461 -0.037002046 -0.036513954 0.103122845
0.015867045 -0.14474963 -0.106070206 -0.11677322 -0.043046582 -0.2276189 -0.04518238 -0.093530126
-0.12585938 -0.09907183 -0.09476009 0.042384915 -0.035606217 0.07241894 -0.024275962 0.039138254
-0.013925733 0.13561948 -0.013357281 -0.14037013 -0.039707568 0.019791842 -0.00042061243 -0.12773477
00000000: de48 6bbd 9fc0 a7bd 1597 dc3c 0230 8e3d
00000010: 28f0 883d 0068 bdbb db9a e43c d555 e93c
00000020: 4b27 663c d86b 05be 3a19 09be 6c93 2cbd
00000030: c01c 45bc 51ce 0bbe a92a a7bd 37cb e3bd
00000040: 2b0d 6ebe f2e6 00be 0b2d 41bc 1e27 e2bb
00000050: d6b2 3bbe 0eee 93bc 4206 5e3e bd02 98bc
00000060: 6ce6 1d3d 5c8a cb3d 6db4 673c 5cb7 1dbe
00000070: 58c3 cc3c 615d 72bc 3e10 ab3d f66a 04be
00000080: 39cc 143c 9c89 bdbd 30aa 4bbd 15d2 95bc
00000090: 44a1 903d dfcb 0739 5771 923d 4375 0f3d
000000a0: ea01 34bd faef 2ebc 2b78 be3d 7ded 723d
000000b0: 3ad7 b33c 5098 1e3d 56e9 043a 1b6b f0bc
000000c0: 3b6c 293d c0d3 de3c 865f dd3c bb1a a63c
000000d0: f659 9fbd 7643 393d e640 83bd 0382 c6bc
000000e0: 25e6 23bd 67fc fcbd f6ad 9a3d 87b6 69be
000000f0: 680a d939 64dc fcbd be93 a6bd ded1 a5bd
00000100: 11fd febd 36c4 3ebe 9116 22be 55af 08be
00000110: f652 d9bd dfe1 34be 24e8 0fbe 4f9d 45bd
00000120: cb65 3dbb 0e88 ca3c 04f1 27bd 27f9 b7bb
00000130: 17d7 02bc ee06 66bd d0bf 3bbd c7e0 593d
00000140: 61f6 48bd 015c fabd 6a63 e9bd 1d4d 2e3c
00000150: 1ce2 8b3c 9b99 8abd 3e17 7e3c 0411 ef3c
00000160: a395 2e3c f276 1cbd dec2 0abe e349 2fbe
00000170: 10a5 06be 8cb9 30be 81cb 52bd b2d3 40be
00000180: 5cbb 8bbd ee3a 06be 4363 5ebd 18fd 403d
00000190: 4a6d 28bc 462d 8fbd ad75 c03d 24c5 b83d
000001a0: 15b7 4b3d 4933 003e c28a 25be 2ba0 ac3d
000001b0: a816 40be 21cd 00bd 562c 18bc 01af 693c
000001c0: d999 a03c 118e c0bc 5816 373d 5ff1 16bd
000001d0: c691 9dbd d749 35be 6549 903c b931 fdbc
000001e0: 6902 b0bd a529 bfbd 58cd f1bc 5876 98bc
000001f0: f5d8 83bd c4c9 26be af85 753d 35c5 243d
00000200: e8bf 2dbd fd02 433d 81d9 9cbd ae07 24bd
00000210: 64c1 07be aa0f 17be 58f0 19be 05ad 0dbe
00000220: c5b7 fabd 51af ea3c b91a 1cbe 684c 2bbe
00000230: a5ee 6cbe cf23 bebd 3232 b53b e4c9 9cbd
00000240: cc99 f43b 8f2d 95bd 8531 e23c 45be 703d
00000250: 51ce 02be f3c2 59bd b84e 2abd 3674 03be
00000260: 4176 86bc dd2e 6fbd 434d 1abb 591d c1bd
00000270: 5b7b 2bbe 78f6 98bd 0bb4 94bc 659b ffbd
00000280: da32 67bc 5625 f8bc 8b00 023e ba26 d93d
00000290: 2f19 1cbc 0f94 853b 03bc f1bc f8c4 a93a
000002a0: 6636 08be d31a 4ebe 50e2 7e3c c652 a3bc
000002b0: 2776 c2bc c32d bfbd 9b03 11be 3593 4fbd
000002c0: ec81 74bd 2846 2bbe 1f6d 23be 6177 c1bd
000002d0: 1e1f 02be 046a 973d ee93 0fbc 2528 babc
000002e0: 0d2c 5fbd 60ed 03be 4d20 e8bd 4598 963c
000002f0: f100 0bbe c8e5 acbd 5a87 5ebd 5d76 4abb
00000300: fd1b aabd 10cb 25bc eacc 6e3d 2c6e 26bd
00000310: 6c80 aabc 421b a33d 5382 0b3b a3a8 ca3c
00000320: 3216 e7bd cb50 f83d cd18 d03d a2e2 10bb
00000330: 883e 17bd 847b 213d d26b d5bd a6ab a3bd
00000340: c661 e3bc 26e2 3ebe f0aa f5bd 5bb9 52bd
00000350: 6036 73bd 77ab c8bd 7dee b1bd 85c4 acbd
00000360: d4cb a2bd 4bca 173d a050 a53d 33c2 88bd
00000370: 4919 963d 1687 cdbb cdbb d4bc 8f59 cabd
00000380: 8533 f7bd 4f9c d7bd a95d 893d 4807 853b
00000390: aae0 ebbd 758f 17bd a88f 15bd 1232 d33d
000003a0: 9bfb 813c 3f39 14be 563b d9bd cc26 efbd
000003b0: 9d51 30bd ee14 69be 2911 39bd b98c bfbd
000003c0: 48e1 00be 2ce6 cabd 9411 c2bd ce9b 2d3d
000003d0: d3d7 11bd 6250 943d 62de c6bc 6f4f 203d
000003e0: c228 64bc d5df 0a3e 7fd8 5abc 30bd 0fbe
000003f0: 67a4 22bd 8022 a23c a585 dcb9 e7cc 02be

model_.4.bias f4 [32]
-0.09477294 -0.051688995 -0.08377305 -0.57898253 -0.43475655 -0.043136936 -0.22279455 -0.13696358
-0.11894271 -0.15226987 -0.07370878 -0.19565675 -0.15842682 -0.034812216 -0.122158244 -0.13069567
-0.10701061 -0.00444003 -0.47051066 -0.28495902 -0.119707815 -0.026126496 -0.37496123 -0.108379275
-0.08726562 -0.39070746 -0.2147269 -0.20193574 -0.07955166 -0.1004675 -0.23350018 -0.29020652
00000000: 5118 c2bd d7b7 53bd 3491 abbd 3338 14bf
00000010: 6998 debe 5bb0 30bd 4124 64be 2e40 0cbe
00000020: 3c98 f3bd a2ec 1bbe a1f4 96bd 3e5a 48be
00000030: a43a 22be 4197 0ebd 1a2e fabd 16d5 05be
00000040: 6128 dbbd ac7d 91bb c6e6 f0be 26e6 91be
00000050: 5f29 f5bd 3c07 d6bc ebfa bfbe f4f5 ddbd
00000060: 51b8 b2bd cf0a c8be 5ee1 5bbe 3ec8 4ebe
00000070: fbeb a2bd e8c1 cdbd ac1a 6fbe f395 94be

model_.9.weight f4 [128, 512]
-0.07723148 0.03470993 -0.02376559 -0.09075211 -0.061916087 -0.009575938 0.0033449794 -0.01810862
-0.03838565 -0.02675662 -0.041406307 -0.04162329 -0.04881967 -0.040398903 0.01044853 0.0006529864
-0.02444796 -0.05552544 -0.09147089 -0.023071062 -0.090340406 -0.0888358 -0.074452646 -0.07704201
-0.018510588 -0.028955571 -0.0212178 -0.044599425 -0.09032884 -0.08616335 -0.103851415 -0.09699872
-0.069692455 -0.020152008 -0.031141328 -0.034398418 -0.09035435 -0.03933642 -0.051098116 -0.019844169
-0.024199963 -0.05967234 -0.036324102 -0.042134494 -0.0471901 -0.01811723 -0.09097678 -0.10363085
-0.09987764 -0.052687295 -0.07071456 -0.08904968 -0.06852644 -0.037716202 -0.099027865 -0.04755576
-0.04820514 -0.018900191 -0.063113794 -0.023938345 -0.017728709 -0.07931682 -0.095870815 -0.02094859
-0.016787611 -0.0104609635 0.011529134 -0.0017894551 -0.042687565 0.021850727 0.034713935 0.017884677
0.022364339 0.0047478843 0.00815149 0.03298032 -0.014089575 0.01532707 0.006211065 -0.016659927
-0.04109766 -0.073086105 -0.050196193 -0.025024192 -0.09845358 -0.083131544 -0.041416336 -0.069526374
-0.07490546 -0.03812321 -0.042045843 -0.042687945 -0.074655615 -0.028950103 -0.042039026 -0.07050888
0.024777964 -0.05174429 -0.09786786 -0.03530898 -0.046257664 -0.039221223 -0.031858776 -0.033794623
-0.02723256 -0.07865033 -0.028885098 -0.09253824 -0.033559527 -0.048321404 -0.06425985 -0.074549235
-0.021040725 -0.09954486 -0.08681392 -0.05110853 -0.029378066 -0.024283545 -0.059445273 -0.09035497
-0.09857326 -0.02424475 -0.04692307 -0.04029959 -0.024879333 -0.075184 -0.08008174 -0.01971514
-0.07862141 -0.041305684 -0.036709342 0.042221937 -0.059477735 -0.08584359 -0.09720473 -0.080471754
-0.10302623 -0.023387276 0.00019941782 0.043636486 -0.10242551 -0.005943243 -0.009285562 -0.037527118
-0.05873538 -0.041666932 -0.02189709 -0.056827903 -0.021254472 -0.101576686 -0.049981657 -0.042857733
-0.09861461 -0.016126005 -0.06944505 -0.06308609 -0.09158011 -0.07956787 -0.07238483 -0.021152977
-0.10061275 -0.097477436 -0.020277139 -0.07629766 -0.03376845 -0.05385246 -0.07838238 -0.03747411
-0.080844514 -0.09163694 -0.10254222 -0.022751061 -0.07063455 -0.10051247 -0.07837027 -0.067383446
-0.031473383 -0.10060336 -0.07072472 -0.030884853 -0.09229731 -0.097079016 -0.022826815 -0.069257125
-0.08714094 -0.10133332 -0.06880566 -0.09923804 -0.07996099 -0.024947377 -0.03901401 -0.094796345
-0.02455433 -0.042729445 -0.037948206 -0.072838955 -0.060937107 -0.07661 -0.07971923 -0.026591338
-0.03922328 0.01309483 -0.074588574 -0.025568478 -0.00932736 -0.03456791 -0.10059261 -0.030612972
-0.05860262 -0.03984075 -0.048893884 -0.0525854 -0.0367171 -0.08153739 -0.056090605 -0.028000645
-0.039233614 -0.024919271 -0.046514235 -0.039214805 -0.055535655 -0.07803344 -0.028712556 -0.059067167
-0.07367706 -0.10186271 -0.040486794 -0.01651088 -0.04141793 -0.10163474 -0.03938372 -0.084417
-0.03876553 -0.07224027 -0.03591741 -0.07024612 -0.06663046 -0.026728371 -0.016832022 0.0060778125
-0.06716187 -0.07185934 -0.019712882 -0.03908629 -0.09689163 -0.08204961 -0.022407878 -0.06173221
0.023044927 0.019856976 0.009332856 -0.043639548 0.042833373 -0.01032827 0.037922285 -0.07001722
00000000: 8a2b 9ebd 002c 0e3d 0eb0 c2bc 3edc b9bd
00000010: b99b 7dbd 65e4 1cbc 7137 5b3b 8758 94bc
00000020: 453a 1dbd b330 dbbc a999 29bd 2f7d 2abd
00000030: 22f7 47bd 5279 25bd 5030 2b3c 2d2d 2b3a
00000040: 1747 c8bc a56e 63bd 1755 bbbd 86ff bcbc
00000050: 6404 b9bd 8bef b5bd a17a 98bd 34c8 9dbd
00000060: 84a3 97bc 3c34 edbc f4d0 adbc e3ad 36bd
00000070: 54fe b8bd 6976 b0bd 0db0 d4bd 44a7 c6bd
00000080: ebba 8ebd d315 a5bc 191c ffbc 5be5 0cbd
00000090: b40b b9bd 3a1f 21bd 424c 51bd 3d90 a2bc
000000a0: 003f c6bc fc6a 74bd 95c8 14bd 3895 2cbd
000000b0: 684a 41bd 966a 94bc 0952 babd 693c d4bd
000000c0: a68c ccbd a2ce 57bd ccd2 90bd ae5f b6bd
000000d0: 9757 8cbd 4e7c 1abd 1fcf cabd d4c9 42bd
000000e0: c172 45bd 93d4 9abc ce41 81bd 591a c4bc
000000f0: cc3b 91bc db70 a2bd eb57 c4bd 619c abbc
00000100: 2c86 89bc 7664 2bbc b1e4 3c3c 268c eaba
00000110: 28d9 2ebd 4c00 b33c 3330 0e3d e382 923c
00000120: 6b35 b73c 2494 9b3b d48d 053c 5f16 073d
00000130: f6d7 66bc 641e 7b3c 3186 cb3b 667a 88bc
00000140: 0556 28bd 2bae 95bd 869a 4dbd 89ff ccbc
00000150: 08a2 c9bd df40 aabd 2da4 29bd d863 8ebd
00000160: 0968 99bd 1527 1cbd 4338 2cbd 8ed9 2ebd
00000170: 0be5 98bd c428 edbc 1d31 2cbd f666 90bd
00000180: 28fb ca3c d2f1 53bd f26e c8bd 26a0 10bd
00000190: ad78 3dbd 6fa6 20bd 597e 02bd 3b6c 0abd
000001a0: d116 dfbc 6d13 a1bd 71a0 ecbc b084 bdbd
000001b0: b775 09bd aaec 45bd ab9a 83bd 45ad 98bd
000001c0: 995d acbc 2dde cbbd 7fcb b1bd 2e57 51bd
000001d0: 45aa f0bc 49ee c6bc e37c 73bd 070c b9bd
000001e0: c7e0 c9bd ed9c c6bc 6832 40bd 2f11 25bd
000001f0: becf cbbc 12fa 99bd e501 a4bd a581 a1bc
00000200: 4304 a1bd 2630 29bd 895c 16bd e9f0 2c3d
00000210: ed9e 73bd c4ce afbd 4613 c7bd 60ce a4bd
00000220: 6bff d2bd ac96 bfbc d01a 5139 2cbc 323d
00000230: 77c4 d1bd 89bf c2bb 7822 18bc 09b6 19bd
00000240: 8394 70bd f2aa 2abd 8761 b3bc 60c4 68bd
00000250: dc1d aebc 7007 d0bd 91b9 4cbd 978b 2fbd
00000260: 75f6 c9bd af1a 84bc 3539 8ebd 4833 81bd
00000270: 5a8e bbbd 7bf4 a2bd 7f3e 94bd 0249 adbc
00000280: 0f0e cebd 40a2 c7bd 3e1c a6bc f341 9cbd
00000290: c950 0abd 6694 5cbd f186 a0bd 747e 19bd
000002a0: cf91 a5bd 26ac bbbd a801 d2bd 6f60 babc
000002b0: d9a8 90bd 7bd9 cdbd 9880 a0bd 5500 8abd
000002c0: 3cea 00bd 2209 cebd 1fd8 90bd 3b02 fdbc
000002d0: 5f06 bdbd 5dd1 c6bd 4dff babc aed6 8dbd
000002e0: f376 b2bd d887 cfbd fbe9 8cbd 503d cbbd
000002f0: 96c2 a3bd 715e ccbc 28cd 1fbd 9624 c2bd
00000300: 2a26 c9bc 1205 2fbd 946f 1bbd 972c 95bd
00000310: 3099 79bd b4e5 9cbd d643 a3bd 14d6 d9bc
00000320: 97a8 20bd b38b 563c e5c1 98bd fc74 d1bc
00000330: c9d1 18bc 1597 0dbd 8003 cebd 0ec8 fabc
00000340: 4d09 70bd 0e30 23bd f444 48bd ca63 57bd
00000350: ab64 16bd 13fd a6bd 43bf 65bd 9c61 e5bc
00000360: 6db3 20bd 8023 ccbc b685 3ebd b49f 20bd
00000370: 5b79 63bd ffcf 9fbd 9836 ebbc 6af0 71bd
00000380: 00e4 96bd 669d d0bd 7bd5 25bd d341 87bc
00000390: d9a5 29bd e025 d0bd d350 21bd d2e2 acbd
000003a0: 9bc8 1ebd b5f2 93bd 221e 13bd 33dd 8fbd
000003b0: 8d75 88bd 75f5 dabc 4fe3 89bc 6328 c73b
000003c0: 2a8c 89bd fd2a 93bd e97c a1bc f218 20bd
000003d0: 1e6f c6bd a009 a8bd ba90 b7bc eada 7cbd
000003e0: b7c8 bc3c 19ab a23c d6e8 183c 62bf 32bd
000003f0: 0c72 2f3d e737 29bc 6654 1b3d 3065 8fbd

model_.9.bias f4 [128]
-0.100913696 -0.10676712 -0.14022335 0.23294032 -0.2808115 -0.3480338 -0.08003387 -0.081813514
-0.091840036 -0.07087908 -0.1509361 -0.15433356 1.5395132 -0.19273987 -0.20455158 -0.05387638
-0.040483233 0.8508225 -0.04858541 -0.010361627 -0.32749867 -0.12415983 -0.038910024 -0.08689112
0.8816108 -0.10172931 0.5231344 0.45064744 -0.028442971 -0.39967614 -0.46127814 -0.07625362
0.29802755 -0.105463505 -0.032220762 -0.06398002 -0.10279345 -0.09641747 -0.0947264 -0.43049324
-0.21625794 -0.3189753 -0.46754518 0.55016 0.11702969 -0.0679649 0.71369636 0.03682655
-0.058509503 -0.30498034 -0.06895779 -0.050724074 -0.25572184 -0.4281015 -0.19006428 -0.045277365
-0.05231666 -0.042686988 -0.091076866 -0.032953724 -0.23015687 -0.07948986 -0.0980156 -0.07306535
-0.053055547 0.33938116 -0.06121293 -0.14292948 -0.07083458 -0.040906712 0.42228964 -0.16385467
-0.49155185 0.5654705 -0.102942996 -0.16462938 -0.04563704 -0.045016594 -0.2043338 -0.07133631
-0.05222106 -0.08584733 -0.06030359 -0.23276752 -0.19620962 -0.16524774 -0.07904973 -0.3703996
-0.28661078 -0.29843718 -0.15970238 -0.14575058 0.5120589 -0.18572871 -0.12309203 0.39527732
-0.09729084 -0.3597507 -0.060731053 0.47663048 0.013547168 0.23784645 -0.27760202 -0.35085675
-0.028001457 0.33764878 -0.044339284 -0.052203678 -0.05669298 -0.07308727 -0.13265546 -0.101657696
0.6139362 -0.050106306 -0.0725972 -0.08303995 -0.4132353 -0.08067024 -0.107429445 -0.08800736
-0.33830148 0.49393216 -0.14951505 -0.15769748 -0.022928918 -0.19199942 -0.06820206 -0.4452353
00000000: d7ab cebd b8a8 dabd b696 0fbe e887 6e3e
00000010: 86c6 8fbe 7c31 b2be cce8 a3bd d88d a7bd
00000020: a116 bcbd 0d29 91bd fe8e 1abe 9e09 1ebe
00000030: c50e c53f 9a5d 45be f875 51be 7bad 5cbd
00000040: bfd1 25bd 81cf 593f 7f01 47bd d0c3 29bc
00000050: e8ad a7be 8247 febd 1e60 1fbd f9f3 b1bd
00000060: 3fb1 613f 7557 d0bd 23ec 053f 43bb e63e
00000070: 3c01 e9bc 5aa2 ccbe a62c ecbe dc2a 9cbd
00000080: 1197 983e 40fd d7bd ebf9 03bd f507 83bd
00000090: 5f85 d2bd 8676 c5bd eaff c1bd 9c69 dcbe
000000a0: b972 5dbe bb50 a3be 1562 efbe 49d7 0c3f
000000b0: 43ad ef3d 2e31 8bbd ceb4 363f 70d7 163d
000000c0: a9a7 6fbd 6226 9cbe be39 8dbd 0cc4 4fbd
000000d0: f9ed 82be 1f30 dbbe 36a0 42be c274 39bd
000000e0: fe49 56bd 8dd8 2ebd 8286 babd 7cfa 06bd
000000f0: 3eae 6bbe 94cb a2bd 67bc c8bd 49a3 95bd
00000100: c650 59bd 5ec3 ad3e 69ba 7abd 1b5c 12be
00000110: b811 91bd cc8d 27bd 5936 d83e 85c9 27be
00000120: afac fbbe adc2 103f c7d3 d2bd 9b94 28be
00000130: e8ed 3abd 5263 38bd e13c 51be c518 92bd
00000140: c0e5 55bd bad0 afbd e600 77bd 9c5a 6ebe
00000150: 2deb 48be b436 29be d3e4 a1bd 04a5 bdbe
00000160: a6be 92be c2cc 98be 0589 23be a43f 15be
00000170: 4b16 033f ab2f 3ebe ad17 fcbd ca61 ca3e
00000180: 6c40 c7bd 3e31 b8be 20c1 78bd e908 f43e
00000190: f1f4 5d3c 058e 733e da21 8ebe 7fa3 b3be
000001a0: 5063 e5bc 4de0 ac3e 1c9d 35bd 86d3 55bd
000001b0: e636 68bd c7ae 95bd d5d6 07be e931 d0bd
000001c0: ec2a 1d3f 453c 4dbd d7ad 94bd d910 aabd
000001d0: 9493 d3be 7036 a5bd f803 dcbd 343d b4bd
000001e0: da35 adbe ade4 fc3e 791a 19be 737b 21be
000001f0: 6dd5 bbbc 7f9b 44be 86ad 8bbd e2f5 e3be

model_.12.weight f4 [32, 128]
0.03958002 0.0047870297 0.020487618 -0.056993876 -0.13960597 -0.0950342 -0.08116419 -0.026519397
-0.0065339836 -0.0704187 -0.085020885 0.083252855 -0.064922996 -0.042048085 0.0870508 -0.053629324
-0.08753381 0.029178351 0.038569562 -0.06031571 -0.11386706 -0.061133876 -0.06803502 0.034331936
-0.35016897 -0.018527258 -0.3360052 0.076405756 -0.04661784 -0.08465096 -0.084447145 0.055347063
-0.06494274 -0.009684271 0.019181188 0.04985128 -0.07004174 -0.014618065 0.01857714 0.0049626227
0.036979772 -0.07958786 -0.33151695 -0.03122122 -0.10296743 -0.047044102 0.02638517 0.037472975
-0.050860383 -0.03483784 0.083357856 -0.023993505 -0.029618708 0.04996398 0.007958273 -0.048440006
0.0072783916 0.013898134 -0.05683694 0.026891237 0.05380575 0.021957096 -0.021332394 0.046847053
-0.013078462 0.029823422 -0.07699389 0.004615682 0.040998302 0.07248571 -0.05446695 0.051621553
0.0054937582 -0.04311423 0.04688252 -0.010305008 0.021863962 -0.08084154 -0.044145197 -0.011833022
-0.07761736 -0.009350763 -0.049413837 -0.049435142 0.017382298 0.032884866 0.058318604 -0.11677492
0.0363285 -0.055988632 -0.05522967 -0.40251932 -0.24433306 0.013707377 0.030112974 -0.3538995
-0.08300432 -0.12306615 0.054475233 -0.090373315 -0.05443126 -0.08832273 -0.08186964 -0.06676042
0.04435275 -0.016588744 0.080178045 -0.016100243 -0.044005178 0.059599794 -0.070916474 -0.00759149
-0.115686744 0.03766882 -0.023751993 -0.01524658 -0.017613925 -0.06484392 -0.015226581 -0.011416351
-0.027387917 -0.32671374 -0.07721929 -0.06330083 0.08799403 -0.06627777 0.011100395 -0.038722638
0.049809903 -0.14781916 -0.120244205 0.02586944 -0.008833568 -0.11881839 0.0641386 -0.041261833
-0.009979337 0.01795476 -0.12553442 -0.0037606936 -0.11876003 -0.058188867 -0.0011905332 -0.010300713
-0.13904198 0.044142358 -0.083839186 0.06251876 -0.011085942 -0.023122983 -0.027511308 0.022081787
-0.3061001 -0.114518195 -0.1188702 -0.11342992 -0.049914043 -0.017149974 -0.04381997 0.08348757
-0.023850355 -0.105294034 -0.10651438 0.1067424 -0.034999207 -0.07644234 0.014084581 0.06622149
0.082518265 0.038131926 -0.31223384 -0.12226377 -0.1255035 0.011335459 -0.0040518935 -0.018594947
0.120601855 -0.13170952 0.046361618 0.011590426 0.020112514 -0.05317791 0.11305359 -0.020988293
-0.025154656 0.015175893 -0.08610493 -0.14348666 -0.0827068 -0.13161676 -0.1428273 -0.0400781
-0.046261445 -0.12102052 0.07383434 0.0010260576 -0.066382736 -0.13252783 -0.33791327 -0.004753943
-0.04375257 -0.105162084 -0.031187128 -0.3047418 -0.02460503 -0.06590243 -0.070351586 -0.06646864
-0.12849656 0.097671054 0.027481526 -0.0022637814 -0.15876658 0.08842511 -0.11322073 -0.046253096
-0.04673868 -0.15626362 0.056368407 -0.36099863 -0.34502023 -0.1392131 -0.124062404 -0.090286605
-0.05186093 -0.12183873 -0.11114423 -0.009097699 0.015086406 -0.0647735 0.06547307 0.016145052
-0.09419853 -0.090853505 -0.025853695 0.028308127 0.09274045 -0.022515297 0.045690626 0.07560414
-0.2992641 0.04070493 -0.010838586 -0.053850397 -0.102653235 0.020050583 -0.102127865 0.036755234
-0.124250144 -0.24467096 0.058290824 -0.08227175 0.04027648 -0.014824819 0.016095039 -0.05091861
00000000: a91e 223d 84dc 9c3b a6d5 a73c 6972 69bd
00000010: def4 0ebe 4aa1 c2bd 6939 a6bd 353f d9bc
00000020: 071b d6bb ae37 90bd 6e1f aebd 7980 aa3d
00000030: 59f6 84bd 9d3a 2cbd b147 b23d 6caa 5bbd
00000040: ed44 b3bd 7007 ef3c 1efb 1d3d 9b0d 77bd
00000050: 2233 e9bd 8467 7abd f255 8bbd a59f 0c3d
00000060: 5949 b3be 7ac6 97bc e008 acbe 9f7a 9c3d
00000070: 59f2 3ebd 7c5d adbd a0f2 acbd 9ab3 623d
00000080: b300 85bd c7aa 1ebc de21 9d3c db30 4c3d
00000090: 0b72 8fbd 9c80 6fbc 162f 983c 7f9d a23b
000000a0: 1a78 173d f6fe a2bd 97bc a9be a5c3 ffbc
000000b0: 97e0 d2bd 51b1 40bd b625 d83c 437d 193d
000000c0: fa52 50bd 1fb2 0ebd 86b7 aa3d 078e c4bc
000000d0: efa2 f2bc 08a7 4c3d 6b63 023c 0769 46bd
000000e0: 937f ee3b 00b5 633c dacd 68bd 034b dc3c
000000f0: 6b63 5c3d 5edf b33c 46c1 aebc b2e2 3f3d
00000100: 0c47 56bc 4050 f43c f9ae 9dbd 263f 973b
00000110: d6ed 273d 6373 943d bd18 5fbd 1f71 533d
00000120: fc04 b43b 8c98 30bd e307 403d 56d6 28bc
00000130: 0d1c b33c 4090 a5bd 98d1 34bd 4bdf 41bc
00000140: daf5 9ebd f133 19bc 2a66 4abd 817c 4abd
00000150: 5265 8e3c 48b2 063d 7ddf 6e3d b027 efbd
00000160: 31cd 143d 5654 65bd 8238 62bd 0317 cebe
00000170: 7232 7abe e894 603c 7caf f63c 5132 b5be
00000180: 2bfe a9bd 1b0a fcbd 6c21 5f3d a515 b9bd
00000190: 50f3 5ebd 8ce2 b4bd 45ab a7bd b0b9 88bd
000001a0: 3bab 353d 1ee5 87bc 6334 a43d a8e4 83bc
000001b0: c63e 34bd ea1e 743d a83c 91bd 09c2 f8bb
000001c0: 2ced ecbd 9f4a 1a3d 8a93 c2bc cbcc 79bc
000001d0: 144b 90bc e4cc 84bd e978 79bc a60b 3bbc
000001e0: a05c e0bc 0647 a7be 2625 9ebd dea3 81bd
000001f0: 3736 b43d a4bc 87bd 6ede 353c a19b 1ebd
00000200: 7805 4c3d e85d 17be 9842 f6bd 26ec d33c
00000210: abba 10bc 0e57 f3bd 195b 833d 2b02 29bd
00000220: 6080 23bc dc15 933c 188c 00be f875 76bb
00000230: 7538 f3bd 7357 6ebd aa0b 9cba 52c4 28bc
00000240: 0561 0ebe 9ece 343d e1b3 abbd d609 803d
00000250: d0a1 35bc 696c bdbc 655f e1bc dde4 b43c
00000260: 27b9 9cbe 8488 eabd 3872 f3bd f24d e8bd
00000270: ab72 4cbd 1a7e 8cbc 927c 33bd 88fb aa3d
00000280: d261 c3bc 66a4 d7bd 3624 dabd c29b da3d
00000290: 545b 0fbd cd8d 9cbd 04c3 663c 229f 873d
000002a0: 56ff a83d 3930 1c3d 1ddd 9fbe 6d65 fabd
000002b0: fd83 00be 5cb8 393c bfc5 84bb 6e54 98bc
000002c0: 1bfe f63d dcde 06be aee5 3d3d c5e5 3d3c
000002d0: 00c3 a43c 15d1 59bd a488 e73d a4ef abbc
000002e0: 2311 cebc 4fa4 783c c857 b0bd 2bee 12be
000002f0: 2f62 a9bd 8bc6 06be 5241 12be ef28 24bd
00000300: a47c 3dbd 9bd9 f7bd 7536 973d c87c 863a
00000310: acf3 87bd 60b5 07be f802 adbe f7c6 9bbb
00000320: e535 33bd 385f d7bd 267c ffbc 1e07 9cbe
00000330: 7d90 c9bc daf7 86bd 7e14 90bd b620 88bd
00000340: 9a94 03be c307 c83d f020 e13c f35b 14bb
00000350: b593 22be 3918 b53d 45e0 e7bd e373 3dbd
00000360: 0f71 3fbd 9203 20be 8fe2 663d d0d4 b8be
00000370: 7ea6 b0be e18d 0ebe 6e14 febd 2fe8 b8bd
00000380: 206c 54bd 9686 f9bd 969f e3bd 840e 15bc
00000390: f92c 773c f8a7 84bd bf16 863d a142 843c
000003a0: 29eb c0bd 6711 babd 21cb d3bc 72e6 e73c
000003b0: b4ee bd3d 0072 b8bc 1826 3b3d 58d6 9a3d
000003c0: 2539 99be 36ba 263d 5394 31bc 3c92 5cbd
000003d0: dc3b d2bd 1f41 a43c 6a28 d1bd a88c 163d
000003e0: dc76 febd 068b 7abe 5cc2 6e3d 177e a8bd
000003f0: f3f8 243d cce3 72bc bed9 833c 0890 50bd

model_.12.bias f4 [32]
-0.3877229 -0.34061486 -0.013473586 -0.45071763 -0.32486188 -0.24568261 -0.22479355 -0.054413863
-0.46631962 -0.4609703 -0.36071286 -0.269122 -0.42218718 -0.35885853 -0.076471314 -0.31651443
-0.084563226 -0.25558534 -0.003189487 -0.42890486 -0.23022793 -0.3175402 -0.10583587 -0.65322006
-0.08868745 -0.08129829 -0.056191783 -0.3521829 -0.3198727 -0.59287953 -0.35728267 -0.0263097
00000000: 9e83 c6be 1265 aebe 51c0 5cbc 76c4 e6be
00000010: 4c54 a6be 3994 7bbe 4830 66be 12e1 5ebd
00000020: 72c1 eebe 4d04 ecbe 5baf b8be 5cca 89be
00000030: eb28 d8be 4ebc b7be fe9c 9cbd 2e0e a2be
00000040: 7c2f adbd 15dc 82be b606 51bb 6b99 dbbe
00000050: dfc0 6bbe a194 a2be 7ac0 d8bd 6e39 27bf
00000060: c4a1 b5bd b87f a6bd 5b29 66bd 5151 b4be
00000070: 5bc6 a3be f4c6 17bf c1ed b6be 7187 d7bc

model_.15.weight f4 [5, 32]
-0.20049164 -0.24264915 -0.02148655 0.16125152 0.013038482 0.2386238 0.17259616 -0.16508403
0.34287566 -0.015330524 -0.019845044 -0.1536661 0.06246331 0.031149914 -0.12618685 -0.0023965153
0.17666396 -0.07832713 -0.11486758 0.12567379 -0.36706644 -0.090286344 -0.0028558248 0.10248516
0.17139386 -0.0445202 0.020668417 -0.00030988848 -0.15394631 -0.060088325 -0.053727973 -0.06306182
-0.044335686 -0.030326316 0.026314897 -0.037432596 0.24895033 0.17719725 0.21083342 -0.008220627
-0.23347701 0.16639416 0.26141486 -0.18482849 0.027861966 0.039358597 -0.016460434 0.07652509
0.16598217 0.012011381 -0.077138714 0.3060475 -0.058205616 -0.07169101 0.05511383 -0.1419422
0.06444386 0.07618682 -0.12645736 -0.27411962 0.025764784 0.20688725 -0.24625479 0.01819563
0.21393645 -0.022401772 0.12057379 0.15469088 -0.2565812 -0.003321131 -0.0035651654 0.093680285
0.06510868 0.0355221 -0.29131034 -0.055744074 0.31013224 0.093116015 0.02650588 -0.09095382
0.004356256 0.08894803 0.024957728 -0.1358438 -0.10121777 -0.38300171 0.099078014 0.36605066
-0.14499317 0.017623601 0.023699239 0.003584034 0.2831067 0.38617238 0.06471756 0.08183326
0.0075900196 -0.07240654 0.016500786 0.20101248 -0.0019057578 0.053572122 0.00780268 0.07751874
0.029261312 -0.04905693 -0.033303346 -0.020648751 -0.18948218 0.3191494 -0.055496395 0.06647056
0.017908555 0.28844735 0.057551976 0.02996729 0.16307157 0.17875129 0.10741042 0.17319678
-0.008996306 -0.015931347 -0.029374398 0.28459495 0.08549566 0.2146188 0.25048575 -0.05069851
-0.057552967 0.18612796 0.09572963 0.2189588 -0.0032449854 0.0130170565 0.17613105 0.015654663
0.06658888 -0.20784548 -0.008643896 -0.04798259 0.037588567 -0.21040873 -0.012177266 0.09488555
0.08576023 0.049512636 0.03114736 0.13998511 -0.11301331 -0.12229064 -0.09036601 0.15999117
0.07013463 0.09776299 -0.00383221 0.021798855 0.11485301 0.21323527 0.021917852 0.06982601
00000000: ae4d 4dbe 0579 78be 9004 b0bc 1e1f 253e
00000010: 5b9f 553c cc59 743e 0cbd 303e ca0b 29be
00000020: 668d af3e e12c 7bbc 1392 a2bc a55a 1dbe
00000030: 87d9 7f3d 1b2e ff3c 2037 01be db0e 1dbb
00000040: 66e7 343e f969 a0bd b23f ebbd a1b0 003e
00000050: 22f0 bbbe 0ce8 b8bd ca28 3bbb bde3 d13d
00000060: df81 2f3e d05a 36bd d050 a93c 8778 a2b9
00000070: 1aa4 1dbe 2d1f 76bd dd11 5cbd 8e26 81bd
00000080: 5699 35bd e56e f8bc 5792 d73c ec52 19bd
00000090: d6ec 7e3e 3273 353e b7e4 573e cfaf 06bc
000000a0: 9914 6fbe 3b63 2a3e 2bd8 853e ae43 3dbe
000000b0: c73e e43c 7b36 213d 08d8 86bc 30b9 9c3d
000000c0: 3bf7 293e 62cb 443c e7fa 9dbd 42b2 9c3e
000000d0: 0369 6ebd bcd2 92bd 0abf 613d 4c59 11be
000000e0: 24fb 833d d607 9c3d 0a7e 01be 6859 8cbe
000000f0: ab10 d33c 40da 533e 372a 7cbe 000f 953c
00000100: 2812 5b3e ec83 b7bc 64ef f63d 4967 1e3e
00000110: 9c5e 83be 55a7 59bb 8da5 69bb 73db bf3d
00000120: b357 853d 9f7f 113d a126 95be e653 64bd
00000130: a7c9 9e3e 9cb3 be3d dc22 d93c ff45 babd
00000140: edbe 8e3b 622a b63d 2674 cc3c a31a 0bbe
00000150: 434b cfbd cd18 c4be 6ae9 ca3d fe6a bb3e
00000160: 1779 14be 5f5f 903c e824 c23c 1de2 6a3b
00000170: 5df3 903e 63b8 c53e a48a 843d 3298 a73d
00000180: b3b5 f83b e149 94bd a82c 873c 37d6 4d3e
00000190: 9fca f9ba 716e 5b3d a0ad ff3b 25c2 9e3d
000001a0: 6bb5 ef3c ebef 48bd 1769 08bd 9227 a9bc
000001b0: 9e07 42be 8d67 a33e 3050 63bd b821 883d
000001c0: f6b4 923c 5faf 933e 9fbb 6b3d f67d f53c
000001d0: 3cfc 263e 940a 373e fff9 db3d 7f5a 313e
000001e0: 3e65 13bc 7582 82bc 94a2 f0bc 6eb6 913e
000001f0: 5918 af3d 08c5 5b3e ab3f 803e 3ea9 4fbd
00000200: a9bc 6bbd 5498 3e3e e50d c43d bc36 603e
00000210: d2a9 54bb 7e45 553c b35b 343e 353e 803c
00000220: c05f 883d 72d5 54be 219f 0dbc 6489 44bd
00000230: 78f6 193d 6375 57be 2883 47bc 5b53 c23d
00000240: 0fa3 af3d c3cd 4a3d c028 ff3c 4258 0f3e
00000250: 8673 e7bd 8473 fabd d111 b9bd bad4 233e
00000260: bfa2 8f3d f637 c83d d125 7bbb 8393 b23c
00000270: 0e38 eb3d 595a 5a3e 118d b33c f000 8f3d

model_.15.bias f4 [5]
16396.994 -0.017233524 -0.2391587 0.44318706 -0.030289847
00000000: fd19 8046 522d 8dbc 05e6 74be 6ae9 e23e
00000010: 6a22 f8bc
